weights/double_dqn_checkpoint.pth (torch_old, 28448 bytes, 6 tensors)

input_layer.weight f4 [64, 37]
0	0xbdae553e	-0.085123524
1	0xbe153ea3	-0.14574675
2	0x3d1315b8	0.035909384
3	0xbd7ee6fb	-0.062232
4	0x3d83e6b1	0.06440485
5	0xbe1efdee	-0.15526554
6	0x3dcbfdd2	0.09960522
7	0xbd187a7e	-0.037226193
8	0x3e7c8629	0.24660553
9	0x3cedf4d2	0.029047403
10	0xbf278a52	-0.65445435
11	0x3e523c76	0.20530877
12	0xbd105779	-0.03523967
13	0xbe9586a3	-0.29204282
14	0xbf1a004c	-0.60156703
15	0xbcf9d411	-0.030496629
16	0xbcf6ca4a	-0.030125756
17	0x3da9bf89	0.082884856
18	0xbd280c79	-0.04102752
19	0x3d9b5490	0.075844884
20	0xbecee9dd	-0.404128
21	0x3e8a8a75	0.2705876
22	0x3e0b93c7	0.13630591
23	0x3df83568	0.121195614
24	0xbeb84e43	-0.3599721
25	0xbe7e8d89	-0.24858679
26	0x3dbd9f2b	0.092588745
27	0xbd53dc12	-0.051723547
28	0x3d992a4f	0.07478773
29	0xbdd509dd	-0.10402272
30	0xbea0e52d	-0.31424847
31	0x3e0567d2	0.13027886
32	0x3dbad629	0.09122879
33	0xbd3a05d2	-0.045415707
34	0xbece1363	-0.40249166
35	0x3ba73abf	0.0051034386
36	0xbb65acb2	-0.0035045561
37	0x3de2b24e	0.11069165
38	0x3e44c792	0.19216755
39	0x3e1117a3	0.14169173
40	0x3e2aa127	0.16663037
41	0x3debdbf8	0.11516565
42	0x3e82ff68	0.25585485
43	0xbdeb08c4	-0.11476281
44	0xbe4772c0	-0.19477367
45	0xbe36b661	-0.1784301
46	0xbea0f173	-0.3143421
47	0x3e198c96	0.14995036
48	0xbaac600c	-0.0013151183
49	0x3d7c93ac	0.06166427
50	0x3de805a7	0.11329203
51	0x3dd4b2b5	0.10385648
52	0x3e6ae137	0.22937475
53	0x3ba4d541	0.0050303047
54	0xba8100ca	-0.0009842154
55	0x3d945a8d	0.07243834
56	0xbe3cb292	-0.18427494
57	0xbd1b637b	-0.03793667
58	0xbabcfa90	-0.0014417935
59	0xbdb48bdd	-0.08815739
60	0x3e012b16	0.12614092
61	0x3e5d1443	0.2158976
62	0x3d65d29c	0.056109056
63	0x3e28d79d	0.164885
64	0x3cae5e53	0.021285212
65	0xbdf5dbba	-0.120048
66	0xbe0d64ed	-0.13808031
67	0xbd158c6c	-0.03651087
68	0x3e47f003	0.19525151
69	0x3e80fe18	0.25193858
70	0x3e4a5c41	0.19761755
71	0x3d97270f	0.07380497
72	0x3d98409b	0.074341975
73	0x3d116c42	0.035503633
74	0x3da7695b	0.08174392
75	0x3d9845ad	0.074351646
76	0x3d88ad5c	0.06673691
77	0x3de12f75	0.1099538
78	0x3d6cb634	0.05779095
79	0xbf14b7c0	-0.5809288
80	0x3d807e72	0.062741175
81	0x3eaa3b46	0.33248347
82	0x3d99e44b	0.075142466
83	0xbf0ca703	-0.5494234
84	0xbc86e7ac	-0.016467892
85	0xbc045a6d	-0.0080782
86	0xbd2ddd05	-0.04244711
87	0x3d7c6ace	0.061625294
88	0x3e2eec5c	0.17082351
89	0x3db9f841	0.09080554
90	0x3d8f0a92	0.06984438
91	0x3dbf7287	0.09348016
92	0xbd466705	-0.04843809
93	0x3e714dc6	0.23564824
94	0xbec30021	-0.38086036
95	0x3de3b067	0.111176305
96	0x3e11c933	0.14236908
97	0xbe243206	-0.16034707
98	0xbea2c539	-0.31791094
99	0xbe9e914f	-0.30970237
100	0x3dc50e3c	0.096218556
101	0x3ea01e96	0.31273335
102	0xbcd8f340	-0.026483178
103	0xbd7809b7	-0.06055614
104	0xbe86c4e9	-0.26322106
105	0x3b3ee966	0.0029130816
106	0x3c0c5cd3	0.008567053
107	0x3c70cbaf	0.014696999
108	0xbddd7b57	-0.10814541
109	0x3b54a8f5	0.003244934
110	0xbbb57c6c	-0.005538514
111	0x3f15a415	0.58453494
112	0xbed39260	-0.41322613
113	0xbe98e85d	-0.2986478
114	0xbe80e9f8	-0.25178504
115	0xc0137aa8	-2.3043613
116	0xbce4a542	-0.027910832
117	0xbc72aa88	-0.014811166
118	0x3d0df8a8	0.034660965
119	0x3d28c4e8	0.04120341
120	0x3d606b36	0.054789744
121	0xbb4b7945	-0.0031047624
122	0x3b91e87f	0.0044527645
123	0x3b444a78	0.0029951613
124	0x3d01550a	0.03157524
125	0xbbe1ca5f	-0.0068905796
126	0xbd7023b7	-0.05862781
127	0xbd4c7777	-0.049918618
128	0xbd74f6e1	-0.059805755
129	0xbd1f99bf	-0.038964983
130	0x3c82a28d	0.01594665
131	0x3c17dc36	0.009268811
132	0x3ba43b56	0.005011956
133	0x3d39aa3f	0.045328375
134	0x3ddbdb66	0.10735206
135	0x3d79de2d	0.0610029
136	0x3d3ee373	0.04660363
137	0x3d835b91	0.06413949
138	0x3d90fd9f	0.070796244
139	0x3dfc8ca9	0.12331516
140	0x3d877628	0.066143334
141	0x3d821fe8	0.06353742
142	0x3db9f4dc	0.09079906
143	0x3d864be6	0.06557445
144	0x3d9c7af7	0.07640641
145	0xbd686b33	-0.05674286
146	0x3c9dbe4b	0.019255778
147	0xbb859079	-0.0040760604
148	0xbd9481b6	-0.07251303
149	0xbde35ddb	-0.11101886
150	0xbe5a3c0f	-0.21311973
151	0xbe1dc7db	-0.1540827
152	0xbdc349f1	-0.095355876
153	0x3b242ab7	0.0025049874
154	0x3e0699d9	0.13144626
155	0xbd4578ab	-0.04821078
156	0xbd1781c3	-0.036988985
157	0xbe0a309a	-0.13495103
158	0xbd041c24	-0.0322534
159	0x3d3bebaa	0.045879044
160	0xbcd11532	-0.025522802
161	0xbe0e1c49	-0.13877977
162	0xbd8c478a	-0.068495825
163	0xbe227a25	-0.15866907
164	0xbd3a0d83	-0.045423042
165	0xbcf2e87e	-0.029651877
166	0xbcbdc9ca	-0.02316751
167	0x3ddd6248	0.10809761
168	0xbd3670be	-0.044541113
169	0xbe0a357f	-0.1349697
170	0x3d95f860	0.073227644
171	0xbe259724	-0.16170937
172	0x3e63b195	0.22235711
173	0xbcea0628	-0.028567389
174	0xbcc5787f	-0.024105309
175	0xbd1d6e37	-0.038435187
176	0x3e262ae0	0.16227293
177	0x3e5fe6f7	0.2186545
178	0x3e51d5c3	0.204917
179	0xbe4385dd	-0.19094034
180	0xbd30c51a	-0.04315672
181	0x3d0b4312	0.03399951
182	0x3f554cca	0.83320296
183	0xbcc19052	-0.023628388
184	0x3c7134cb	0.0147220595
185	0x3d5acfb9	0.053420756
186	0xbc16b649	-0.009198734
187	0x3c3d2677	0.011544815
188	0xbd977f79	-0.0739736
189	0x3ddb7138	0.10714954
190	0x3ea44003	0.32080087
191	0xbd2c6794	-0.042090967
192	0xbdfe6ffa	-0.124237016
193	0xbed9ff35	-0.4257752
194	0xbfdefe9e	-1.7421453
195	0xbdf7f992	-0.12108149
196	0x3d1a751b	0.037709337
197	0x3d0f88e6	0.035042666
198	0xbd82531c	-0.06363508
199	0xbda0f201	-0.078586586
200	0xbd067a51	-0.032831494
201	0x3da1dba1	0.07903219
202	0xbb3962d7	-0.0028287673
203	0xbc929660	-0.01789397
204	0xbbbe7d2b	-0.005813261
205	0x3e19695d	0.14981599
206	0x3dbb9ff6	0.091613695
207	0x3a7fa722	0.0009752383
208	0x3de5d428	0.11222106
209	0x3e8e8e56	0.2784297
210	0x3d602383	0.054721367
211	0xbd4ef197	-0.050523367
212	0x3d7740cc	0.06036453
213	0x3d611b6a	0.054957785
214	0x3de6a98a	0.11262806
215	0x3c9e3309	0.019311445
216	0xbdc7d56c	-0.09757504
217	0x3dcb7687	0.09934717
218	0x3d53fbff	0.051753994
219	0xbdb8a03a	-0.09014936
220	0xbbae373a	-0.005316642
221	0x3c77acef	0.015116914
222	0x3d79d9f5	0.060998876
223	0x3d099e22	0.033598073
224	0xbcb2540a	-0.021768589
225	0x3d2bae80	0.041914463
226	0x3e27ccc4	0.16386706
227	0xbe3371f1	-0.17523934
228	0x3e275254	0.1634
229	0xbdcbd35e	-0.099524245
230	0x3dffd013	0.12490859
231	0x3ebb9875	0.36639753
232	0x3e1a8440	0.15089512
233	0x3cc5211e	0.024063643
234	0x3cebedf9	0.028799998
235	0x3d9363e1	0.07196785
236	0xbd955760	-0.07292056
237	0x3c499748	0.012304135
238	0xbd830ef0	-0.063993335
239	0xbccb9452	-0.024850998
240	0xbb726e5d	-0.0036992051
241	0x3dca5efd	0.09881399
242	0xbd443d9b	-0.047910314
243	0xbdeb4655	-0.11488024
244	0x3de7838b	0.11304387
245	0x3d1bfd64	0.03808345
246	0x3f05d995	0.5228513
247	0xbe493bf2	-0.19651774
248	0xbdc5f2e6	-0.0966547
249	0x3dddc9bf	0.10829496
250	0x3e07e8c3	0.13272385
251	0x3e9ca5f5	0.30595365
252	0x3e2fdd7d	0.17174335
253	0x3e145783	0.14486508
254	0xbe1d1a00	-0.1534195
255	0xbde29dee	-0.11065279

input_layer.bias f4 [64]
0	0x3d9876af	0.07444512
1	0x3da1e500	0.079050064
2	0xbe182574	-0.14858037
3	0xbcafbfee	-0.021453824
4	0x3e11292a	0.14175859
5	0x3cbc63ea	0.022996861
6	0xbd87e8e3	-0.066362165
7	0x3d308b1b	0.04310141
8	0x3bce513c	0.006296305
9	0xbe8944e0	-0.2681036
10	0x3e628fef	0.22125219
11	0x3e5a7251	0.21332671
12	0x3d8b080a	0.06788643
13	0x3db4ad12	0.08822073
14	0xbd3327f2	-0.043739267
15	0x3b8b131d	0.004244222
16	0x3d826a54	0.06367937
17	0xbcf37cb7	-0.029722555
18	0x3cb58480	0.022157907
19	0xbe16b585	-0.14717682
20	0xbe0d4599	-0.1379608
21	0x3d903987	0.070422225
22	0x3cafbd56	0.021452587
23	0xbd940a9b	-0.07228585
24	0xbe754bff	-0.23954771
25	0x3e3c1ebd	0.183711
26	0xbcb65f9d	-0.022262389
27	0xbe2c0c01	-0.16801454
28	0x3e676152	0.22595719
29	0x3e0a2e38	0.13494194
30	0xbdc5e061	-0.096619375
31	0xbdccfb2d	-0.100088455
32	0x3e3f22ae	0.18665573
33	0x3b10222d	0.0021993027
34	0xbda90aaf	-0.08253991
35	0x3d7e41dd	0.06207453
36	0x3df65faf	0.12029969
37	0x3dc11504	0.094278365
38	0x3bc8160f	0.006106145
39	0xbe267f80	-0.16259575
40	0xbddde89f	-0.108353846
41	0xbd321d40	-0.043484926
42	0xbd0b93d2	-0.03407652
43	0x3e6f05ec	0.23342103
44	0xbd1e40b4	-0.038635924
45	0xbd854974	-0.06508151
46	0x3aea0458	0.0017854078
47	0xbe1e0396	-0.15431055
48	0xbdf8efdb	-0.12155124
49	0x3d719309	0.058978114
50	0xbe4a3d60	-0.19749975
51	0x3dc6ea9e	0.097127184
52	0xbd914b6b	-0.07094463
53	0xbc644d22	-0.0139344055
54	0xbe324b1a	-0.17411461
55	0x3d953ae7	0.07286625
56	0x3d7ac349	0.061221395
57	0x3c265dfd	0.0101542445
58	0xbdd535f8	-0.10410684
59	0xbd5f5111	-0.05452067
60	0xbdac1c6a	-0.08403857
61	0x3db14097	0.08654898
62	0x3c7773bb	0.015103276
63	0x3db2f1ca	0.08737524

middle_layers.0.weight f4 [64, 64]
0	0xbe37c8b9	-0.17947663
1	0x3e1c6e66	0.15276489
2	0x3e2d5daf	0.16930269
3	0x3dc8df22	0.09808184
4	0x3c589334	0.01321869
5	0x3d4b7cd6	0.0496796
6	0xbdcf2abe	-0.10115574
7	0xbe91ee0b	-0.28501925
8	0xbe93743f	-0.28799626
9	0x3d67da74	0.056604818
10	0xbd810356	-0.062994644
11	0xbe4157a0	-0.18881083
12	0x3d616510	0.05502802
13	0x3dc8c385	0.098029174
14	0x3dbe2b5c	0.09285614
15	0xbe77daec	-0.24204606
16	0xbe8981c7	-0.26856825
17	0xbe0eb255	-0.13935216
18	0x3d817391	0.06320871
19	0x3d13a56d	0.036046434
20	0x3e0922b2	0.13392141
21	0x3d70207d	0.058624733
22	0x3ddf89ff	0.109149925
23	0x3e00a95b	0.12564604
24	0x3d14b4c0	0.03630519
25	0xbef137d8	-0.47112918
26	0x3e9fce1f	0.31211945
27	0xbbc99898	-0.006152224
28	0x3e4b2151	0.19836928
29	0x3e738557	0.23781334
30	0xbe727a7d	-0.23679538
31	0xbd2cbc9d	-0.042172063
32	0x3e587976	0.21140084
33	0xbd664571	-0.05621857
34	0xbd3fc9e9	-0.046823416
35	0xbdb9a6a8	-0.0906499
36	0xbe5bbc22	-0.21458486
37	0xbd86693c	-0.065630406
38	0xbd87c645	-0.06629614
39	0xbe83a8b8	-0.2571466
40	0xbf056d61	-0.52120024
41	0x3e7416a0	0.23836756
42	0x3d9f8ab7	0.0779013
43	0xbe2e7959	-0.17038478
44	0x3c6da3ec	0.014504414
45	0x3d4298ee	0.047509126
46	0xbeb9176b	-0.3615068
47	0x3e531b13	0.20615797
48	0xbf04f5eb	-0.5193774
49	0xbdcb52b3	-0.09927883
50	0xbe80739b	-0.250882
51	0x3d74b076	0.0597386
52	0xbcfd50a9	-0.03092225
53	0x3e38a822	0.18032888
54	0xbe9abc27	-0.30221674
55	0x3c810786	0.015750658
56	0x3e2920f9	0.16516484
57	0xbdbaffec	-0.091308445
58	0xbe954b86	-0.29159182
59	0x3e45aed0	0.19304967
60	0x3cb225e8	0.02174659
61	0x3e9562fb	0.2917708
62	0xbe255d0b	-0.16148774
63	0xbe4aaae3	-0.1979175
64	0x3dd0f888	0.102036536
65	0x3e15412e	0.14575645
66	0xbef5022f	-0.47853228
67	0xbdeed93b	-0.11662527
68	0x3d96fb87	0.07372194
69	0x3e3c6e46	0.18401441
70	0xbe07b8d7	-0.13254105
71	0x3c8d3707	0.017238153
72	0xbddc2d07	-0.10750776
73	0xbde7180c	-0.112838835
74	0xbd832415	-0.064033665
75	0x3ea302fb	0.3183821
76	0xbe17d57c	-0.14827532
77	0xbcb6eca1	-0.02232963
78	0xbee2eebb	-0.44322762
79	0x3d0de1b8	0.03463909
80	0x3d5c21da	0.05374322
81	0x3c8ff30e	0.017571952
82	0xbdb17c3c	-0.08666274
83	0xbd5955f4	-0.053060487
84	0x3b4199f4	0.0029541226
85	0x3d883e2c	0.06652483
86	0xbc0e0137	-0.008667282
87	0xbd2fbff4	-0.04290767
88	0x3e02b044	0.12762552
89	0x3da16763	0.078810476
90	0xbd26769e	-0.040640466
91	0xbe0885e9	-0.13332333
92	0x3e00b810	0.12570214
93	0xbe739e7e	-0.23790929
94	0x3d785d86	0.060636066
95	0xbe09211f	-0.13391541
96	0xbe0f8b1f	-0.14017914
97	0xbdc53c44	-0.096306354
98	0xbd4598dd	-0.048241485
99	0xbdef3c87	-0.116814665
100	0xbcd45cf5	-0.025923232
101	0x3e45c77e	0.19314381
102	0x3e29e168	0.16589892
103	0xbe23cf32	-0.15997007
104	0xbe0a04dd	-0.13478418
105	0xbc760b44	-0.015017334
106	0x3d940c7f	0.07228946
107	0x3bb9459d	0.0056540505
108	0xbe7ce630	-0.24697185
109	0xbde54bf6	-0.11196129
110	0xbe20ad95	-0.15691216
111	0x3d2d5ddc	0.04232584
112	0xbd9bb87c	-0.07603547
113	0xbd574a53	-0.052561115
114	0xbd1d64ee	-0.038426332
115	0x3e8229f2	0.25422627
116	0x3c9f364d	0.019435072
117	0x3ed3deaa	0.41380817
118	0xbdd4314b	-0.103609644
119	0xbceed567	-0.029154493
120	0xbdcd53f5	-0.10025779
121	0x3c3522fc	0.011055704
122	0x3ea57c4e	0.323214
123	0x3d179efb	0.03701685
124	0xbd93ca1f	-0.07216286
125	0x3dfe5a2c	0.12419543
126	0xbdd751d9	-0.10513658
127	0x3dbcaab3	0.09212246
128	0xbe2ab85a	-0.16671887
129	0xbe29e072	-0.16589525
130	0x3db1092b	0.08644327
131	0xbea675a6	-0.32511634
132	0x3de0da3b	0.10979124
133	0x3ddadb8e	0.10686408
134	0xbe1663ed	-0.14686556
135	0x3df5f658	0.12009877
136	0xbe36f18d	-0.17865582
137	0xbe2bdbc2	-0.1678305
138	0xbd5a6a39	-0.053323958
139	0xbdcb92fc	-0.099401444
140	0x3e871ea7	0.26390573
141	0x3e9fb379	0.31191614
142	0xbf2479df	-0.6424846
143	0xbd21b2e0	-0.03947723
144	0xbd10e7d1	-0.035377327
145	0xbe5b97ae	-0.2144458
146	0x3e25f441	0.16206457
147	0x3cd69e4b	0.026198527
148	0xbe3ddcaf	-0.18541215
149	0x3e10f159	0.14154567
150	0xbd6b0c65	-0.057384867
151	0x3b26afa5	0.0025434282
152	0xbe15b813	-0.14621
153	0xbe1d1ad3	-0.15342264
154	0xbe991dca	-0.2990554
155	0x3e45f964	0.19333416
156	0x3dbc4009	0.09191901
157	0xbe4d3f4d	-0.20043679
158	0x3daaa3dd	0.08332036
159	0x3e26f869	0.16305698
160	0xbe8610b9	-0.26184633
161	0xbdf6ba3c	-0.1204724
162	0xbb90718c	-0.004408067
163	0x3de3d8b3	0.111253165
164	0x3e199d6b	0.15001456
165	0x3c9df9be	0.019284125
166	0x3e366215	0.17810853
167	0x3cd444ac	0.025911652
168	0x3e955874	0.29169047
169	0xbddd4b3d	-0.10805366
170	0xbe343617	-0.17598759
171	0xbee1314e	-0.4398293
172	0x3bb7555f	0.005594894
173	0x3ce34117	0.027740998
174	0xbe270372	-0.16309908
175	0xbe4fa6db	-0.20278494
176	0xbcf7afdf	-0.030235229
177	0xbe892b39	-0.2679079
178	0xbe126702	-0.14297107
179	0xbd8e4972	-0.06947602
180	0xbe5f452a	-0.21803728
181	0xbeb4e765	-0.3533279
182	0xbe81b79d	-0.25335398
183	0xbebc2c0a	-0.3675235
184	0xbdeda9da	-0.11604662
185	0xbe82a341	-0.25515178
186	0xbd095fc4	-0.033538595
187	0x3d0e04d9	0.03467259
188	0xbe304a1a	-0.17215768
189	0xbe1be5b8	-0.1522435
190	0x3ec72a93	0.3889967
191	0x3e141f94	0.14465171
192	0xbe748c16	-0.23881564
193	0xbe3f4e9c	-0.18682331
194	0x3e05b143	0.13055901
195	0xbe406785	-0.1878949
196	0xbce8488a	-0.028354902
197	0x3ba0759c	0.0048968326
198	0xbeb972e0	-0.36220455
199	0xbe98f33c	-0.29873073
200	0xbe1a27d2	-0.15054253
201	0xbddd2d06	-0.10799603
202	0xbc9795dc	-0.018504076
203	0x3b1562be	0.002279445
204	0xbe89851b	-0.26859364
205	0x3e688c88	0.22709858
206	0x3e4fdcb0	0.2029903
207	0xbe79959c	-0.24373478
208	0x3d678f20	0.05653298
209	0xbe063213	-0.1310504
210	0xbc4c9b9a	-0.01248827
211	0xbe76de06	-0.24108133
212	0x3e99a8ef	0.300117
213	0x3dd19514	0.102335125
214	0xbdd404f8	-0.1035251
215	0xbe0f859d	-0.14015813
216	0x3eaef77a	0.34173185
217	0xbd551b58	-0.05202803
218	0x3db2961c	0.08720037
219	0x3bb1a130	0.0054208264
220	0x3e3cec10	0.18449426
221	0x3d84150a	0.064493254
222	0x3d03fbd3	0.03222258
223	0xbe0bdbd1	-0.13658072
224	0x3d547014	0.0518647
225	0x3e6b7768	0.22994769
226	0xbe3d63ac	-0.18495053
227	0x3e221668	0.1582886
228	0xbe2fc924	-0.17166573
229	0xbc29c5b4	-0.0103620775
230	0x3d81942d	0.063270904
231	0x39e3807b	0.0004339254
232	0xbe326d70	-0.1742456
233	0x3e8ee3b2	0.27908093
234	0xbd855638	-0.065105855
235	0xbca10d7c	-0.01965975
236	0xbe95cbf4	-0.29257166
237	0x3e5be708	0.2147485
238	0xbdcc5ba8	-0.099784195
239	0x3d534c76	0.05158659
240	0x3dcde595	0.10053555
241	0x3d07604d	0.033050824
242	0xbeadeeb1	-0.3397117
243	0x3d5ce51a	0.053929426
244	0xbcd587da	-0.026065756
245	0x3e7f20a9	0.24914803
246	0xbd3f6308	-0.046725303
247	0xbd775c75	-0.06039091
248	0x3e090f3e	0.1338472
249	0xbe242db9	-0.16033067
250	0xbe8401cf	-0.2578263
251	0xbd1a7ac2	-0.037714727
252	0xbe34c9e5	-0.17655142
253	0x3e77786f	0.24167036
254	0xbea02e1a	-0.31285173
255	0xbe7a5657	-0.24446999

middle_layers.0.bias f4 [64]
0	0xbdb7b413	-0.08969893
1	0x3d3cede2	0.0461253
2	0x3cd34b04	0.025792606
3	0x3bbb0b3a	0.0057081254
4	0x3e13a5e1	0.14418747
5	0xbd017e85	-0.0316148
6	0x3c841aef	0.016126124
7	0x3ca3634a	0.019944806
8	0x3dc3dc70	0.095635295
9	0x3ed369b6	0.4129159
10	0xbdae51c5	-0.0851169
11	0x3e619879	0.2203082
12	0x3ed6e687	0.41972753
13	0xbd6f2d46	-0.058392785
14	0xbcf87175	-0.030327538
15	0xbd575e56	-0.0525802
16	0x3cdf18ac	0.027233444
17	0xbce8a791	-0.028400214
18	0xbdb30d01	-0.08742715
19	0x3e4c019e	0.19922492
20	0x3de3a335	0.11115114
21	0x3e1efb9c	0.15525669
22	0xbdb8b268	-0.09018403
23	0xbe09e5a0	-0.13466501
24	0xbcd94288	-0.026520982
25	0xbe2cfe2d	-0.16893835
26	0x3d8835f7	0.06650918
27	0xbd4c3fcf	-0.04986554
28	0xbcfad85d	-0.030620748
29	0xbc737e21	-0.014861614
30	0x3d327936	0.043572627
31	0xbd764a05	-0.060129184
32	0xbd3b2015	-0.045684893
33	0x3d395001	0.045242313
34	0xbc9ddcc5	-0.01927031
35	0xbd817e97	-0.06322973
36	0xbe158dab	-0.14604823
37	0xbd991a9e	-0.0747578
38	0x3d818a05	0.06325153
39	0xbd2faaab	-0.04288737
40	0xbd62acf2	-0.055340715
41	0x3efa4281	0.48878863
42	0x3e1cfee7	0.15331613
43	0xbdd75b14	-0.10515419
44	0x3b206eb1	0.002448004
45	0xbe0b0e3a	-0.13579646
46	0xbc2782de	-0.010224072
47	0xbd4a6dbf	-0.04942107
48	0x3da3bec2	0.079953685
49	0xbdf400e6	-0.11914234
50	0xbdfecc8d	-0.12441359
51	0x3eafad70	0.3431201
52	0x3d5c7681	0.05382395
53	0xbdbddf5b	-0.09271117
54	0x3e37482a	0.17898622
55	0x3e26cf9a	0.16290131
56	0xbe341d7c	-0.17589372
57	0xbe05dfde	-0.1307368
58	0x3c770124	0.015075956
59	0x3cd19f28	0.025588587
60	0x3ba73ec1	0.0051039164
61	0x3d34910c	0.04408364
62	0x3d60afaf	0.054855045
63	0xbe1ac189	-0.1511289

output_layer.weight f4 [4, 64]
0	0xbee0fbbf	-0.43942067
1	0x3e8e21b3	0.27760085
2	0x3e025961	0.12729408
3	0xbdc69910	-0.09697163
4	0x3e88a23f	0.26686284
5	0x3eeba2a4	0.46022522
6	0x3cc52da4	0.024069615
7	0xbeb36bf8	-0.3504331
8	0x3de1559c	0.11002657
9	0x3e085d4d	0.13316841
10	0xbca25350	-0.019815117
11	0x3ea2395a	0.3168438
12	0x3e12e6c4	0.14345843
13	0x3d239329	0.039935265
14	0x3e49a887	0.19693194
15	0x3d4f0bbf	0.05054831
16	0x3e10a1e6	0.1412426
17	0xbd485721	-0.048911218
18	0xbe13f901	-0.14450456
19	0x3e32d151	0.1746266
20	0x3e3048f4	0.1721533
21	0x3dc2b647	0.09507423
22	0xbe5b7885	-0.21432693
23	0xbe1540cf	-0.14575504
24	0x3cd05317	0.025430245
25	0xbe916101	-0.2839432
26	0xbcf3cff9	-0.029762255
27	0xbdabcd4c	-0.08388767
28	0x3e7569ad	0.23966093
29	0xbd383382	-0.044970997
30	0xbe6513af	-0.2237079
31	0x3e14e0d2	0.14538887
32	0x3dc3c599	0.09559173
33	0x3f2c0b66	0.6720489
34	0xbe5ce8ca	-0.21573177
35	0x3f1ef7a9	0.6209665
36	0x3cac67d2	0.0210456
37	0xbe058538	-0.130391
38	0x3e0a5ec1	0.13512708
39	0x3ec44919	0.3833702
40	0x3e79683e	0.24356171
41	0x3e4e53cd	0.20149155
42	0x3e42e5cf	0.19032978
43	0xbd2e821c	-0.04260455
44	0x3e38f30c	0.18061465
45	0xbe41758d	-0.18892498
46	0x3d70e303	0.058810245
47	0x3edce36e	0.43142265
48	0x3d5dac0d	0.05411916
49	0x3dfad0c4	0.1224685
50	0xbded8ed5	-0.11599509
51	0x3e143045	0.14471538
52	0x3e927d24	0.286111
53	0xbdbb6981	-0.09150983
54	0x3d818ecf	0.06326067
55	0x3e56af69	0.20965351
56	0xbe8645f5	-0.26225248
57	0x3e306e8f	0.17229675
58	0x3da77623	0.0817683
59	0x3f0d6e79	0.5524669
60	0xbe04f7b8	-0.12985122
61	0xbc8be043	-0.01707471
62	0xbcedfd3b	-0.029051414
63	0xbe21e4e2	-0.15809968
64	0x3dc24ba4	0.094870836
65	0x3e3ff195	0.187445
66	0x3ea2d549	0.3180335
67	0xbddc17cc	-0.107467264
68	0x3e112932	0.14175871
69	0x3e69b62f	0.22823404
70	0x3db155f3	0.08658972
71	0x3cb0b8fa	0.021572579
72	0x3e0db267	0.13837586
73	0x3e0c1bc1	0.13682462
74	0xbd4e9610	-0.05043608
75	0x3e81ea88	0.25374246
76	0x3e21eccb	0.15812986
77	0xbd3c7391	-0.04600865
78	0x3eb0e71b	0.3455132
79	0xbd59395a	-0.05303321
80	0x3e3049c9	0.17215647
81	0xbd576138	-0.05258295
82	0xbe82ed86	-0.2557184
83	0x3d88239d	0.06647418
84	0x3e991895	0.29901567
85	0x3e7385b9	0.2378148
86	0xbe153afe	-0.14573285
87	0xbd51bb58	-0.051204056
88	0x3d3a0938	0.045418948
89	0xbe40064a	-0.18752399
90	0xbd0776e2	-0.03307236
91	0xbea1522c	-0.31508005
92	0xbe6b1deb	-0.22960632
93	0xbd2fac77	-0.042889085
94	0xbe2757f9	-0.16342153
95	0x3e3e0575	0.18556769
96	0xbcb07689	-0.021540897
97	0x3ee9db2c	0.45675027
98	0xbdd1fa75	-0.10252849
99	0x3ed8e470	0.42361784
100	0xbd7d1917	-0.061791506
101	0xba90e00a	-0.0011053097
102	0x3eb6646a	0.35623485
103	0x3ebcc54a	0.3686927
104	0x3e2d9a03	0.16953282
105	0x3e409efe	0.1881065
106	0x3e5c0c47	0.21489058
107	0xbd79fd3d	-0.061032522
108	0x3e600abf	0.218791
109	0xbd2ce01e	-0.042205922
110	0x3e200c68	0.15629733
111	0x3ebdb959	0.37055472
112	0x3e123420	0.14277697
113	0x3e8c7fd3	0.27441272
114	0xbcacaf7a	-0.021079767
115	0x3dc01abe	0.09380101
116	0x3e86869d	0.26274577
117	0x3db8c852	0.09022583
118	0x3d46d6b8	0.048544616
119	0x3e4d5248	0.20050919
120	0xba69e349	-0.0008922113
121	0x3d0bd24b	0.034136098
122	0x3e07c78f	0.1325972
123	0x3ed49cf1	0.41525987
124	0xbe269dad	-0.16271086
125	0xbdc38e48	-0.09548622
126	0xbe9d163d	-0.3068103
127	0xbe327458	-0.17427194
128	0xbe72e7b8	-0.23721206
129	0x3c8f67da	0.017505575
130	0x3ea9d795	0.3317229
131	0xbe1d29f4	-0.15348035
132	0x3eb1fe5b	0.3476437
133	0x3e8c7df0	0.27439833
134	0x3e8c0b95	0.27352586
135	0xbe06b841	-0.13156225
136	0xbe398192	-0.18115833
137	0x3db75f38	0.089537084
138	0xbe0f52a7	-0.13996373
139	0x3e9660f7	0.29370853
140	0x3e601bb5	0.2188557
141	0xbebb0a67	-0.36531374
142	0xbd3cae5b	-0.046064716
143	0x3dbdb198	0.09262389
144	0x3e509792	0.2037032
145	0x3ed8eb3d	0.42366973
146	0xbe59a7ab	-0.21255367
147	0x3e041ad6	0.12900862
148	0xbd62de99	-0.055388067
149	0x3e96504b	0.29358134
150	0xbe1be032	-0.15222242
151	0x3e0b0adf	0.13578366
152	0x3e414092	0.18872288
153	0xbe71b6de	-0.23604915
154	0x3de62e9a	0.11239357
155	0xbe97f93f	-0.29682347
156	0x3eb72120	0.3576746
157	0x3d2e032d	0.042483497
158	0xbda984a1	-0.0827725
159	0x3d97fe69	0.07421572
160	0xbeadcf5d	-0.33947268
161	0x3ed007c7	0.40630934
162	0x3e66f360	0.22553778
163	0x3e6f015e	0.23340365
164	0x3e0229d8	0.12711275
165	0xbebfd596	-0.3746764
166	0x3e4a613b	0.19763653
167	0x3e11c807	0.1423646
168	0x3eeb7bb1	0.45992807
169	0x3e0b7f04	0.13622671
170	0x3e21bced	0.15794726
171	0xbd3c1f16	-0.045928083
172	0x3e9dd487	0.30826208
173	0xbd8f9e87	-0.070126586
174	0x3e61dba5	0.22056444
175	0x3e9c4be0	0.30526638
176	0x3e5b76bc	0.21432012
177	0x3e659538	0.22420204
178	0x3cca487d	0.024692768
179	0x3e383d00	0.1799202
180	0x3d174d5d	0.036939014
181	0x3dfdba2a	0.123890236
182	0x3e1a893e	0.15091416
183	0x3e684cc0	0.22685528
184	0xbebd5323	-0.3697749
185	0xbe3cb73a	-0.1842927
186	0x3e82962c	0.25505197
187	0x3f110ece	0.56663215
188	0xbd9b91a4	-0.07596138
189	0x3d895174	0.06704989
190	0xbe58fc7e	-0.21190068
191	0xbee1e690	-0.44121218
192	0x3dcc51aa	0.09976514
193	0x3e38232d	0.17982168
194	0x3d4ac274	0.04950185
195	0xbf004b24	-0.50114655
196	0x3e834bc3	0.2564374
197	0x3e943898	0.28949428
198	0x3dde7e04	0.10863879
199	0x3d80e7be	0.06294201
200	0xbe451f75	-0.19250281
201	0x3e41fc4c	0.189439
202	0x3d04ebb9	0.032451365
203	0x3da89c7a	0.082329705
204	0x3e00976b	0.12557761
205	0x3c506406	0.01271916
206	0x3f1224e4	0.5708754
207	0xbec6290c	-0.3870319
208	0x3ed4860d	0.41508523
209	0x3ddcf46f	0.107888095
210	0x3e14f5ed	0.14546938
211	0x3dd5f79c	0.10447618
212	0x3ed26467	0.41092226
213	0x3e3fb924	0.1872297
214	0xbe4e5d55	-0.20152791
215	0x3e3d92a3	0.18512969
216	0x3e22fc8d	0.15916653
217	0xbe043a2b	-0.12912814
218	0xbe6979c6	-0.22800359
219	0x3db18d5a	0.08669539
220	0x3e5fde29	0.21862091
221	0xbe084387	-0.1330701
222	0xbe3aa8f4	-0.18228513
223	0x3e950848	0.2910788
224	0xbe0b9f37	-0.13634954
225	0x3ed7dd40	0.42160988
226	0xbe808616	-0.251023
227	0x3eb9e717	0.3630912
228	0xbe23c0a2	-0.15991452
229	0x3eb27a4c	0.3485893
230	0x3ebdb367	0.37050936
231	0x3ee300ac	0.4433645
232	0xbc8ee686	-0.017443907
233	0x3e731e8c	0.23742121
234	0x3dfba7d2	0.122878686
235	0xbe94f915	-0.29096285
236	0x3ece98aa	0.40350848
237	0xbdf0a18a	-0.11749561
238	0x3e8d9ef1	0.27660325
239	0x3d0fadcb	0.03507785
240	0x3e26cca3	0.16289
241	0x3eacc108	0.3374102
242	0x3e5ce1b5	0.21570475
243	0x3e1a68ea	0.15079084
244	0x3d7d08a7	0.06177583
245	0xbb7cac5b	-0.003855488
246	0x3dc5f08f	0.096650235
247	0x3e92949a	0.28629
248	0xbe91b7fb	-0.28460678
249	0xbc58d5a3	-0.013234529
250	0x3cc94eca	0.024573702
251	0x3e1af98c	0.15134257
252	0xbe3b8c19	-0.18315162
253	0xbe3538e9	-0.17697491
254	0xbe00ca42	-0.12577155
255	0x3e881467	0.26578066

output_layer.bias f4 [4]
0	0x3e8f3012	0.27966362
1	0x3e7d16e3	0.24715762
2	0x3e822fcd	0.25427094
3	0x3e1b242f	0.15150522
