weights/dqn_checkpoint.pth (torch_old, 28448 bytes, 6 tensors)

input_layer.weight f4 [64, 37]
0	0x3d1dde6b	0.038542192
1	0x3bfd7334	0.0077346805
2	0xbe8fce3c	-0.28087032
3	0xbbeab6c9	-0.007162903
4	0x3dcdd6f4	0.10050765
5	0x3c0495ef	0.008092388
6	0xbe10f44e	-0.14155695
7	0x3e5076c4	0.20357805
8	0xbdbbbd72	-0.09166993
9	0xbe3c445f	-0.18385457
10	0x3cc082e3	0.023499912
11	0xbd6c2003	-0.057647716
12	0xbdb76cf1	-0.08956326
13	0xbe3d4d75	-0.18486579
14	0xbed5c845	-0.41754356
15	0xbdb54a2d	-0.088520385
16	0x3da48dcc	0.08034858
17	0x3d677172	0.056504674
18	0xbd6260ea	-0.055268206
19	0x3c1f2fd2	0.009715991
20	0xbc9d6c9f	-0.019216834
21	0x3d5bc1d1	0.053651635
22	0x3d826a8c	0.063679785
23	0xbda0cb7f	-0.07851314
24	0xbdc8ac07	-0.097984366
25	0xbdf72fa5	-0.12069634
26	0x3d9e6039	0.07733197
27	0xbde1bfa1	-0.110228784
28	0x3c01ad9c	0.007914927
29	0xbddbb7e7	-0.10728436
30	0xbda58f1e	-0.08083938
31	0x3d2e78fd	0.042595852
32	0x3c5043b9	0.012711459
33	0xbe36016f	-0.17773984
34	0xbe0a062a	-0.13478914
35	0xbc380a51	-0.011232928
36	0xbd137f42	-0.036010034
37	0x3de3c479	0.111214586
38	0x3e03e81b	0.1288151
39	0x3dfc70aa	0.123261765
40	0x3d9a9dc2	0.07549621
41	0xbd572e5f	-0.052534457
42	0x3dc46ae7	0.095907025
43	0xbde5bd4b	-0.112177454
44	0xbe49297f	-0.19644736
45	0xbdf89332	-0.1213745
46	0xbe930ade	-0.28719229
47	0x3e11b5d3	0.14229517
48	0x3d7ac7a8	0.061225563
49	0xbd08a1f7	-0.033357587
50	0xbb0f9d92	-0.0021913988
51	0xbe9e981b	-0.30975422
52	0x3e70becf	0.23510288
53	0xbd1fa8d3	-0.038979363
54	0x3d3fe892	0.046852656
55	0xbe20249c	-0.15638965
56	0xbddaafaa	-0.106780365
57	0xbabe8a16	-0.0014537002
58	0xbdecf066	-0.1156929
59	0xbda54adc	-0.08070919
60	0xbd2871cd	-0.041124154
61	0x3bc4e3d6	0.0060086055
62	0x3cd890b5	0.02643619
63	0x3e099634	0.13436204
64	0xbcf62150	-0.030045182
65	0xbe19f912	-0.15036419
66	0xbd7207dd	-0.05908953
67	0xbbbc48e6	-0.005745995
68	0x3da434e8	0.080179036
69	0x3de1bf90	0.11022866
70	0x3e4267cf	0.18984912
71	0x3d7150e2	0.058915026
72	0x3e25787c	0.16159242
73	0xbbd5423f	-0.0065081413
74	0x3edd5390	0.43227816
75	0xbe6f3d7e	-0.23363301
76	0xbe44348e	-0.19160673
77	0xbe7bb8b8	-0.24582183
78	0xbfaf567e	-1.369827
79	0xbd787076	-0.060654126
80	0x3d53e536	0.051732264
81	0x3d2c6953	0.042092633
82	0x3d946f78	0.072478235
83	0xbcd75f55	-0.026290575
84	0x3ce27fc4	0.027648814
85	0x3dca03f4	0.09864035
86	0xbd80968f	-0.06278717
87	0xbdba0916	-0.09083764
88	0x3ce21f66	0.027602863
89	0xbdab03e8	-0.083503544
90	0x3de3ea4e	0.111286744
91	0x3e1caebf	0.15301035
92	0x3d988a23	0.074482225
93	0x3e3ff8e5	0.1874729
94	0xbe48c109	-0.19604887
95	0xbd14900a	-0.03627018
96	0x3e16cc7d	0.14726444
97	0x3c9464b2	0.018114422
98	0xbe5e4dd5	-0.21709378
99	0xbc07d57f	-0.0082906475
100	0x3d419aac	0.047266647
101	0x3e168378	0.14698589
102	0x3db49e68	0.08819276
103	0x3e898e9c	0.26866615
104	0xbe6af965	-0.22946699
105	0x3cbba388	0.022905126
106	0xbd0b3cea	-0.03399364
107	0xbc829fd2	-0.015945349
108	0xbd70efd1	-0.058822457
109	0x3cbca7ee	0.023029294
110	0xbbd254a0	-0.0064187795
111	0x3dc12e42	0.09432651
112	0x3df87e35	0.12133447
113	0x3de76eab	0.11300405
114	0x3d92771f	0.07151627
115	0xbdcd8f98	-0.10037154
116	0x3dde656b	0.10859188
117	0x3c7947df	0.015214889
118	0x3d8a0ab1	0.067403205
119	0x3d1e057e	0.038579457
120	0x3cb468a1	0.022022547
121	0x3d800b3b	0.06252142
122	0x3bf78df4	0.007554764
123	0x3cc903d2	0.024537954
124	0xbd2e7d91	-0.04260022
125	0xbdec50df	-0.115388624
126	0xbcf7c612	-0.030245814
127	0xbd86354b	-0.065531336
128	0xbd1828ff	-0.037148472
129	0xbcfc62be	-0.030808803
130	0x3c17db4c	0.009268593
131	0x3d1fae46	0.03898456
132	0x3c177a63	0.009245488
133	0x3d3951ac	0.045243904
134	0x3dee87ce	0.116469964
135	0x3de2dcfd	0.110773064
136	0xbd4e00b3	-0.050293636
137	0xbb032737	-0.0020012388
138	0x3d8caf39	0.068693586
139	0x3e13eb1a	0.14445153
140	0x3e832384	0.25613034
141	0x3eb977db	0.36224255
142	0xbefac47d	-0.48978034
143	0xbec75f24	-0.38939774
144	0xbeeae9d8	-0.45881534
145	0xc00da3a9	-2.213114
146	0xbc1d58cd	-0.009603691
147	0x3aa08442	0.0012246447
148	0xbd5005dc	-0.050786838
149	0xbde2065e	-0.11036371
150	0xbdd12f56	-0.10214107
151	0xbe2fabd0	-0.17155385
152	0xbdd95867	-0.106125645
153	0x3eb7b0b0	0.3587699
154	0xbeed9c67	-0.46408388
155	0xbe6a77a5	-0.22897203
156	0xbeebd4e0	-0.46060848
157	0xbfb12a65	-1.3841063
158	0xbd30356b	-0.043019693
159	0xbd334a6d	-0.04377215
160	0xbd9e81e8	-0.077396214
161	0x3da37b10	0.07982457
162	0xbd12940d	-0.035785723
163	0xbe016afa	-0.12638465
164	0x3de0f278	0.10983747
165	0x3ab12cdb	0.0013517396
166	0xbd5b9e0e	-0.05361753
167	0xbd10243e	-0.035190813
168	0xbe4d9472	-0.20076159
169	0x3d9e5c00	0.07732391
170	0x3deafdf8	0.11474222
171	0x3e01b7ef	0.12667821
172	0x3e2ed38b	0.17072885
173	0xbc92f1d8	-0.017937586
174	0xbd7e2310	-0.062045157
175	0x3e32632f	0.17420648
176	0x3dc89046	0.09793143
177	0x3df71166	0.12063865
178	0x3dfeb596	0.124369785
179	0x3d7f39c7	0.06231096
180	0x3db25105	0.087068595
181	0x3d6206bc	0.055182204
182	0x3ac57ab5	0.0015066477
183	0x3c483ce7	0.0122215515
184	0x3bdea757	0.006794851
185	0x3d5fc82c	0.05463426
186	0x3ddfabfd	0.10921476
187	0xbccdd8d3	-0.025127804
188	0xbdd4f0a9	-0.10397465
189	0x3dc4803e	0.09594773
190	0x3e98ffd1	0.29882672
191	0x3d3f6605	0.046728153
192	0xbe40ce8c	-0.18828791
193	0xbe84eee5	-0.25963512
194	0xbfaa8819	-1.3322784
195	0x3d9141d4	0.07092634
196	0xbe0b2c82	-0.13591197
197	0xbb8031f8	-0.0039122067
198	0xbbc1ea19	-0.005917799
199	0x3e365d9f	0.17809151
200	0xbc934576	-0.017977457
201	0x3ddbed03	0.10738566
202	0x3cd66691	0.026171954
203	0xbaafac30	-0.0013402756
204	0xbcd1cedd	-0.025611335
205	0x3df65b10	0.120290875
206	0x3df38524	0.11890629
207	0x3dee16bb	0.11625429
208	0x3e07a36b	0.13245933
209	0x3dfe0e6d	0.12405095
210	0xbcf1227c	-0.029435389
211	0x3cebf447	0.028803004
212	0x3dcbe551	0.09955848
213	0x3d7c7c81	0.061642174
214	0x3e028578	0.12746227
215	0x3df642d9	0.12024469
216	0xbd305914	-0.0430537
217	0xbd3e6e3b	-0.046491843
218	0x3d66f09a	0.0563818
219	0xbe58151b	-0.21101801
220	0x3c3f46d0	0.011674598
221	0x3c8775db	0.01653569
222	0xbe10e693	-0.14150457
223	0xbceb59f3	-0.028729415
224	0xbccf6897	-0.025318427
225	0xbda6528c	-0.08121213
226	0xbc8cf17a	-0.017204989
227	0xbe07e59b	-0.13271181
228	0xbd8a01ab	-0.067385994
229	0xbe321945	-0.17392452
230	0x3e1b5040	0.15167332
231	0x3e96c338	0.29445815
232	0xbe5ab69a	-0.2135872
233	0x3e581c4e	0.21104547
234	0x3e2cbb5e	0.1686835
235	0xbe8a43d5	-0.27004877
236	0x3e4d1d5f	0.20030735
237	0xbe61cc60	-0.22050619
238	0x3d5b2a42	0.053507097
239	0xbe597626	-0.21236476
240	0x3e370bef	0.17875646
241	0x3e486abf	0.1957197
242	0xbd98fb3a	-0.07469793
243	0x39f58e4b	0.00046836058
244	0xbe0ce3c1	-0.13758756
245	0xbdd3d89a	-0.10344048
246	0xbce59735	-0.028026203
247	0xbe1dba7f	-0.15403174
248	0xbde65634	-0.11246911
249	0xbe03be07	-0.12865458
250	0xbc7fae7b	-0.015605564
251	0xbda6f765	-0.081526555
252	0xbe527568	-0.205526
253	0xbdcb5396	-0.09928052
254	0xbc0c603e	-0.008567868
255	0x3e51f29a	0.20502701

input_layer.bias f4 [64]
0	0x3d6b8701	0.057501797
1	0x3b7272fd	0.0036994808
2	0xbdaae533	-0.083444975
3	0x3d4e8ef6	0.050429307
4	0x3e790d18	0.24321401
5	0x3c603dbb	0.013686593
6	0xbe10e8e8	-0.14151347
7	0x3df4a86b	0.11946186
8	0x3bdb9fb8	0.0067023896
9	0xbe191903	-0.14950947
10	0x3e603933	0.2189682
11	0x3e395244	0.18097788
12	0x3e1b8914	0.1518901
13	0x3e045bcd	0.12925644
14	0xbda69b9a	-0.081351474
15	0xbdc985a2	-0.098399416
16	0x3c7e7149	0.015529939
17	0x3d8d5574	0.069010645
18	0xbd059865	-0.032616038
19	0xbe4eac89	-0.20183004
20	0xbe3257dd	-0.1741633
21	0x3da2f072	0.079560176
22	0x3c10e92e	0.008844657
23	0xbdb63541	-0.08896876
24	0xbd912f66	-0.07089119
25	0x3e76524a	0.24054828
26	0x3c4c73c3	0.012478772
27	0xbe480dd3	-0.19536524
28	0x3e235b56	0.1595281
29	0x3dd8f19c	0.10592958
30	0x3bf04e5c	0.00733356
31	0xbe2eea32	-0.17081526
32	0x3e380de2	0.17974046
33	0x3cbe2138	0.0232092
34	0xbe04d561	-0.12972023
35	0x3dab1dbb	0.0835528
36	0xbde5d7a4	-0.11222771
37	0x3c94fb78	0.018186316
38	0xbd292ed7	-0.041304436
39	0xbe18a5aa	-0.14906946
40	0xbca5a401	-0.020219805
41	0x3cbe2bf7	0.023214323
42	0xbd7964d6	-0.06088718
43	0x3e5fbc89	0.21849264
44	0xbca16c7e	-0.019705053
45	0xbd31f0b4	-0.043442443
46	0x3d37cb9c	0.04487191
47	0xbe1611f1	-0.14655282
48	0xbd83b1e0	-0.06430411
49	0x3deac143	0.11462643
50	0xbe4c35ad	-0.1994235
51	0x3da8b020	0.08236718
52	0x3d724415	0.05914696
53	0xbdbcb858	-0.09214848
54	0xbe33badb	-0.17551748
55	0xbd564551	-0.0523122
56	0x3e371cf0	0.17882133
57	0x3d015797	0.031577673
58	0xbdce477b	-0.100722276
59	0xbd9fc310	-0.07800877
60	0x3da7b318	0.08188456
61	0x3d870222	0.06592204
62	0x3db58af6	0.08864395
63	0x3daf6aa7	0.08565264

middle_layers.0.weight f4 [64, 64]
0	0x3e8ed97a	0.27900296
1	0x3d808e35	0.06277124
2	0x3d7d3e04	0.06182672
3	0x3d87e723	0.06635883
4	0xbeacad46	-0.33725947
5	0xbe707715	-0.23482926
6	0xbe5f12bb	-0.21784489
7	0xbd9a3361	-0.07529331
8	0x3d5b4535	0.053532798
9	0xb9879698	-0.00025861408
10	0x3d44b2cd	0.04802208
11	0xbdfbabc0	-0.12288618
12	0xbdd1f68d	-0.10252104
13	0x3d9e5461	0.07730938
14	0xbe132607	-0.14369975
15	0x3e0c1111	0.13678385
16	0xbe04c43f	-0.12965487
17	0xbea053e3	-0.31314
18	0xbd996662	-0.07490231
19	0x3dd3ba91	0.10338319
20	0x3c982f55	0.018577257
21	0x3e02f1f2	0.12787607
22	0xbc904113	-0.017609155
23	0x3d8facfc	0.07015416
24	0x3bab3659	0.0052249846
25	0x3e2a3cfd	0.16624828
26	0xbe0c38cc	-0.13693541
27	0xbdd2080b	-0.1025544
28	0xbe3c9931	-0.18417813
29	0x3d559a8e	0.052149348
30	0x3ec23a03	0.37934884
31	0x3e4cab19	0.19987144
32	0x3e2d3e09	0.16918196
33	0x3d3f1240	0.046648264
34	0x3da5f024	0.08102444
35	0xbdcbac80	-0.09945011
36	0xbca99dd7	-0.020705147
37	0x3d337c4b	0.043819707
38	0x3eaf5e23	0.34251508
39	0xbee5e945	-0.44904533
40	0xbd1a8766	-0.037726782
41	0x3dbfb25f	0.093601935
42	0x3e80bf0d	0.2514576
43	0xbd9013f8	-0.07035059
44	0x3d5a2400	0.05325699
45	0xbe7bd779	-0.24593915
46	0xbd0c731e	-0.03428947
47	0x3e69e35c	0.22840637
48	0x3e171e27	0.14757596
49	0xbd6c90a8	-0.057755142
50	0x3e4b587f	0.19857977
51	0x3d8b7bf5	0.06810752
52	0xbe8e7cea	-0.27829677
53	0xbdb505f3	-0.08839025
54	0xbe7922b4	-0.24329644
55	0xbcfb29ed	-0.03065964
56	0xbe8089be	-0.2510509
57	0xbc640a42	-0.013918461
58	0x3b8024c3	0.0039106323
59	0x3de8fcfe	0.113763794
60	0x3d9e18fa	0.07719608
61	0xbd5e1445	-0.05421855
62	0xbeb4d5a8	-0.35319257
63	0x3d243dba	0.04009793
64	0x3dde5b3f	0.108572476
65	0x3da25710	0.07926762
66	0x3e21ec42	0.15812781
67	0x3d2fd721	0.042929772
68	0x3e299e90	0.16564393
69	0x3e06b94a	0.1315662
70	0xbda6f654	-0.08152452
71	0xbccf8420	-0.025331557
72	0xbdc6efbb	-0.09713694
73	0xbd589057	-0.05287203
74	0xbe399740	-0.18124104
75	0x3ca8dc41	0.020612838
76	0xbdc7d9d6	-0.09758346
77	0x3dbb0506	0.091318175
78	0x3cea3304	0.02858878
79	0x3e3ded69	0.18547596
80	0x3e1990c6	0.14996633
81	0x3e59a5cf	0.21254657
82	0xbdcdb41d	-0.100441195
83	0x3d910959	0.07081861
84	0x3e191468	0.1494919
85	0xbedd2b8f	-0.43197295
86	0x3d920410	0.07129681
87	0x3d8dadd0	0.06917918
88	0xbda91cb0	-0.08257425
89	0x3dddb61b	0.108257495
90	0x3df00ce3	0.11721208
91	0xbe287a93	-0.16453008
92	0x3db319e6	0.08745174
93	0xbe187e55	-0.14891942
94	0xbdeb3a47	-0.11485725
95	0xbdbf6a44	-0.093464404
96	0xbe334a62	-0.17508844
97	0x3e408477	0.18800531
98	0x3deb1865	0.11479262
99	0xbe2dd9ea	-0.16977659
100	0xbdf28022	-0.11840846
101	0xbdee805a	-0.11645575
102	0x3e957840	0.29193306
103	0xbe177288	-0.14789784
104	0x3dcb0b86	0.09914307
105	0xbd8e5e8d	-0.06951628
106	0xbe1ad383	-0.15119748
107	0xbce136b1	-0.0274919
108	0xbe2fb1b8	-0.17157638
109	0xbdfa5e7e	-0.12225054
110	0xbdc6bd4e	-0.09704076
111	0xbe657ff2	-0.22412089
112	0x3d16507f	0.03669786
113	0x3ceb3712	0.028712783
114	0x3e05731e	0.13032195
115	0x3dd417b7	0.10356086
116	0x3e41c86a	0.18924108
117	0xbc346cca	-0.011012265
118	0xbe1b0d2e	-0.15141746
119	0xbe0cabde	-0.13737437
120	0xbd7523ac	-0.059848472
121	0xbcaf1849	-0.021373885
122	0x3c1ca4cf	0.009560778
123	0x3de5fbdd	0.1122968
124	0xbe8e9f8b	-0.27856097
125	0xbdc7a75d	-0.09748719
126	0x3cf4234d	0.029801989
127	0xbda2ca32	-0.07948722
128	0x3c946276	0.018113356
129	0x3c8728d6	0.016498964
130	0x3e2d2efe	0.16912457
131	0x3e222f0b	0.15838258
132	0x3e8f8433	0.28030547
133	0x3d04dc73	0.0324368
134	0xbdd46042	-0.10369922
135	0xbdbc1431	-0.09183539
136	0x3e0b2c41	0.135911
137	0xbd9db417	-0.07700365
138	0xbcdcd524	-0.026957102
139	0x3d6f6684	0.058447376
140	0x3c5edd4c	0.013602566
141	0x3dd4b0a7	0.10385256
142	0xbdad0c9a	-0.08449669
143	0xbd424ab7	-0.047434535
144	0xbe84fcc7	-0.25974104
145	0x3e724919	0.23660697
146	0xbd841e11	-0.06451047
147	0xbd7d5407	-0.061847713
148	0xbde39af7	-0.111135416
149	0x3eceb245	0.40370384
150	0xbd0728eb	-0.032998007
151	0xbdd6ab33	-0.104818724
152	0x3d2c5bed	0.042079855
153	0x3d9dcbdc	0.07704899
154	0x3ec5f61a	0.38664323
155	0xbe0960f9	-0.13415898
156	0x3da7d83c	0.0819554
157	0x3d56d899	0.052452657
158	0x3e4d0744	0.20022303
159	0x3da82125	0.08209447
160	0xbd10a42f	-0.035312828
161	0xbd546dc5	-0.051862497
162	0xbe0c7ede	-0.13720271
163	0xbe31b631	-0.17354657
164	0xbd8cb50d	-0.0687047
165	0x3e51e776	0.20498452
166	0x3e12df72	0.1434305
167	0xbd090c18	-0.0334588
168	0x3d704ca1	0.05866683
169	0xbe88adec	-0.26695192
170	0xbe192a36	-0.14957508
171	0xbce895f3	-0.028391814
172	0x3d148b75	0.03626581
173	0x3dabdee3	0.08392122
174	0xbd6fd605	-0.058553714
175	0x3c298f28	0.0103490725
176	0xbe86c9b1	-0.26325753
177	0x3d1ed6f5	0.038779218
178	0xbe095040	-0.13409519
179	0x3d134d13	0.035962176
180	0xbf0b97d6	-0.5452856
181	0x3e9b43f5	0.30325285
182	0xbe960bbd	-0.2930583
183	0xbd6b5177	-0.057450738
184	0x3da4f9ad	0.080554344
185	0xbdbd1f88	-0.0923453
186	0x3e0cd317	0.137524
187	0x3e37527f	0.17902564
188	0xbe7b9bef	-0.24571203
189	0x3d2597b1	0.040427867
190	0x3d87e39c	0.0663521
191	0x3c83cb07	0.016088022
192	0xbc878359	-0.016542124
193	0xbd21195e	-0.039330833
194	0x3e99298b	0.29914507
195	0xbebbf611	-0.3671117
196	0x3d73990a	0.05947212
197	0x3dbd0bc0	0.09230757
198	0xbe078d4a	-0.13237491
199	0xbdb08224	-0.08618572
200	0xbe4478ac	-0.19186658
201	0xbd4877fd	-0.048942555
202	0xbce727dd	-0.02821725
203	0xbd95267c	-0.07282731
204	0xbe45587f	-0.1927204
205	0x3d9e0f92	0.077178136
206	0x3ca06c84	0.019582994
207	0x3e810402	0.2519837
208	0xbd8ccdc7	-0.068751864
209	0x3dd6af40	0.10482645
210	0xbd68842b	-0.05676667
211	0xbd7b8f62	-0.061416037
212	0x3cba6aba	0.02275597
213	0x3d8f1253	0.06985917
214	0x3d80dbcb	0.06291922
215	0xbcf9e735	-0.030505756
216	0x3c544282	0.01295531
217	0x3da44428	0.08020812
218	0x3d8db44b	0.06919154
219	0xbef6db5a	-0.48214227
220	0x3e3dc450	0.18531919
221	0xbd904e7f	-0.07046222
222	0xbe467580	-0.1938076
223	0xbe3f385f	-0.18673848
224	0xbe199da3	-0.1500154
225	0xbcdce87e	-0.02696633
226	0x3d834f55	0.06411616
227	0x3e1e0275	0.15430625
228	0xbca99aa4	-0.020703621
229	0x3e8a24e0	0.26981258
230	0x3d34d985	0.044152755
231	0xbe474963	-0.19461589
232	0x3d68dd5a	0.056851722
233	0x3e289949	0.16464724
234	0x3d9858f6	0.07438843
235	0xbdb618a5	-0.08891419
236	0x3c770cc4	0.015078727
237	0x3c42d550	0.011891678
238	0xbd4fe30b	-0.050753634
239	0xbd661d36	-0.0561802
240	0x3daba54e	0.08381139
241	0x3e7f30b9	0.2492093
242	0xbe3d4837	-0.18484579
243	0x3dd4e516	0.10395257
244	0x3e7aabcb	0.24479596
245	0xbe00eb08	-0.12589657
246	0x3ce341d4	0.02774135
247	0x3e4da02e	0.20080635
248	0x3ddaf784	0.10691741
249	0xbe0858bc	-0.133151
250	0xbe4533f4	-0.192581
251	0x3e0f5e19	0.14000739
252	0xbe3542c1	-0.17701246
253	0xbe78e8ba	-0.24307528
254	0xbcfc2515	-0.0307794
255	0xbe1576e0	-0.14596128

middle_layers.0.bias f4 [64]
0	0xbd3672a9	-0.044542942
1	0x3c3af70e	0.0114114415
2	0xbc990fc0	-0.018684268
3	0x3d5c3955	0.053765614
4	0x3dcdbdf0	0.10045993
5	0xbdbfda3e	-0.09367798
6	0xbd003a86	-0.031305812
7	0xbccd6898	-0.025074288
8	0x3de1cd64	0.11025503
9	0x3ec973e7	0.3934624
10	0xbdabc3f9	-0.08386988
11	0x3e4d47e9	0.20046963
12	0x3c94462f	0.018099872
13	0x3c247c49	0.0100393975
14	0xbdcb39ed	-0.09923158
15	0x3de33172	0.11093415
16	0x3c6e4af3	0.0145442365
17	0x3d91bf93	0.07116618
18	0xbd433925	-0.04766192
19	0x3e0217c0	0.12704372
20	0x3e076624	0.13222557
21	0x3efe7014	0.49694884
22	0xbdbff9f8	-0.0937385
23	0xbd88e6c8	-0.06684643
24	0xbd84b436	-0.06479685
25	0xbe24ab35	-0.16080935
26	0x3de9f4fc	0.1142368
27	0xbbe7827d	-0.007065116
28	0xbd6e56f2	-0.058188386
29	0x3d4e5382	0.050372608
30	0x3cbd3382	0.02309585
31	0xbc69240e	-0.0142297875
32	0xbdd9daf2	-0.10637464
33	0x3d6b8df1	0.057508413
34	0x3e02f0eb	0.12787215
35	0x3d3a4dd7	0.04548439
36	0xbdee6d4a	-0.11641939
37	0xbd4a8cea	-0.049450792
38	0x3da47b58	0.080313385
39	0xbcf1936f	-0.029489247
40	0xbe0fc6f3	-0.14040737
41	0x3ee2cfdd	0.44299212
42	0x3e9b99b1	0.30390695
43	0xbbcb1d2b	-0.0061985455
44	0x3d73f0c5	0.059555788
45	0xbd7bdd71	-0.06149048
46	0x3d49a87b	0.04923294
47	0xbda66c3c	-0.08126113
48	0x3cb8dc3d	0.022565955
49	0xbd632abd	-0.05546068
50	0xbdc90e8d	-0.098172285
51	0x3ea60981	0.32429126
52	0x38a1d1de	7.716169e-05
53	0x3b8b4368	0.004249979
54	0x3ea5bda2	0.3237124
55	0xbe2e4829	-0.17019714
56	0xbe8ca64e	-0.2747063
57	0xbe4ab143	-0.19794182
58	0x3db04365	0.086066045
59	0xbe58c597	-0.21169125
60	0x3a8a0348	0.0010529542
61	0x3e99b934	0.3002411
62	0x3dcad701	0.0990429
63	0xbdadcd78	-0.08486456

output_layer.weight f4 [4, 64]
0	0x3ca1494a	0.019688267
1	0x3d7f7de8	0.062375933
2	0xbe4f6ae3	-0.20255618
3	0x3d5d703c	0.054062113
4	0x3f3304d2	0.6992923
5	0x3ee59a09	0.44844082
6	0x3dadf2ce	0.08493577
7	0xbdb64df2	-0.08901586
8	0x3e7dcf30	0.24786067
9	0x3de5fdfa	0.11230083
10	0xbe2db4f0	-0.16963553
11	0x3e80e0d4	0.2517153
12	0x3e39c11e	0.18140075
13	0x3ddebe91	0.108761914
14	0xbd128dd4	-0.03577979
15	0x3cfe3d82	0.031035189
16	0x3e5326d1	0.20620276
17	0x3e9d67c5	0.30743232
18	0x3e2f7a2e	0.17136452
19	0x3e59e0b9	0.21277131
20	0x3dcc79a8	0.099841416
21	0x3e40864a	0.18801227
22	0xbefd6b41	-0.4949589
23	0xbd4eb179	-0.05046222
24	0xbef02835	-0.46905676
25	0xbdf74b7a	-0.12074943
26	0x3e061067	0.13092194
27	0xbec821b3	-0.3908821
28	0x3e96b1bb	0.29432473
29	0x3e368583	0.17824368
30	0xbe7588d0	-0.23977971
31	0x3dcc5ddc	0.0997884
32	0x3c56fe90	0.013122216
33	0x3e972b02	0.29525
34	0x3dfe1719	0.12406749
35	0x3d073a5b	0.033014636
36	0x3d5ea835	0.054359633
37	0x3e3e48a3	0.18582396
38	0x3e5898fd	0.2115211
39	0x3deae8e3	0.11470201
40	0x3dc3dcba	0.095635846
41	0x3e085b5b	0.133161
42	0x3ddc3274	0.10751811
43	0xbe178af4	-0.147991
44	0x3d5d06dc	0.05396162
45	0x3ea4e028	0.32202268
46	0x3dbcb4cd	0.092141725
47	0x3d9400e9	0.07226736
48	0xbdc85d78	-0.09783453
49	0x3e58e6a2	0.2118173
50	0xbe2c861a	-0.1684803
51	0x3e7c67da	0.24648991
52	0xbe87e5f5	-0.2654263
53	0x3ec47c26	0.38375968
54	0x3e154189	0.14575781
55	0xbdba7c37	-0.09105723
56	0xbe870eea	-0.26378566
57	0xbe99b81e	-0.30023283
58	0x3e1c625a	0.15271893
59	0xbe0065e4	-0.12538868
60	0x3e0306e9	0.12795605
61	0x3e1eadfe	0.1549606
62	0xbc1da666	-0.009622192
63	0x3ce2f4a1	0.027704539
64	0x3db8f1f2	0.090305224
65	0x3d2970f3	0.041367482
66	0xbe0e2917	-0.13882862
67	0x3deec6de	0.11659025
68	0x3f022967	0.50844425
69	0x3e71262c	0.23549718
70	0x3e51a1d3	0.20471887
71	0xbe1e58ee	-0.15463611
72	0x3e1b4399	0.15162505
73	0x3dd58684	0.104260474
74	0xbda52bb2	-0.08064975
75	0x3e5b22e9	0.21400036
76	0x3e3139e2	0.17307237
77	0x3e0ce3aa	0.13758722
78	0xbae49aca	-0.001744115
79	0x3defc0c2	0.117066875
80	0x3dfef29d	0.124486186
81	0x3e43f51b	0.19136469
82	0x3d9c5b5a	0.076346114
83	0x3ddb0ab1	0.106953986
84	0x3e7e3ab7	0.24827085
85	0x3e742ca6	0.23845157
86	0xbbc97521	-0.006147996
87	0x3e0d0ee3	0.1377521
88	0x3d0ebb24	0.03484644
89	0xbdf40d04	-0.11916545
90	0x3e93cdb8	0.28867888
91	0xbdf0fb83	-0.11766722
92	0x3eab2448	0.33426118
93	0x3e8b2555	0.2717692
94	0xbd906fd5	-0.0705258
95	0x3dc04aa1	0.09389234
96	0xbd4a9bae	-0.049464874
97	0x3eb16c59	0.34652975
98	0x3e204c7a	0.15654173
99	0x3da1f4a4	0.079079896
100	0x39024904	0.00012424967
101	0x3e40156f	0.18758176
102	0x3e3d41db	0.18482153
103	0x3e800057	0.2500026
104	0x3ddc9743	0.107710384
105	0x3e43e37f	0.19129752
106	0x3d034828	0.032051235
107	0x3ccca067	0.02497883
108	0x3dcb684a	0.09932001
109	0x3e436b2b	0.1908385
110	0x3e0c5d19	0.13707389
111	0x3e9597a2	0.2921725
112	0x3c4f549c	0.01265445
113	0x3ddc5055	0.107575096
114	0xbd2c33ea	-0.042041697
115	0x3e214541	0.15749075
116	0x3c420999	0.011843109
117	0x3ec5f7da	0.38665658
118	0x3dd52ab8	0.104085386
119	0xbe34c9ab	-0.17655055
120	0xbe70954c	-0.23494452
121	0xbe45ad96	-0.19304499
122	0x3e771f61	0.24133064
123	0xbdc2b03a	-0.09506269
124	0xbd8c58ea	-0.068528965
125	0x3d1b793e	0.037957422
126	0xbe3def79	-0.18548383
127	0x3e00e189	0.12586035
128	0xbeb2f61f	-0.349534
129	0x3de180fe	0.110109314
130	0x3e0c500d	0.13702412
131	0x3e5939f9	0.21213521
132	0x3f29b85b	0.6629693
133	0x3df96dbc	0.12179133
134	0x3ee8130f	0.4532704
135	0xbe4342a9	-0.19068398
136	0x3da97ab1	0.08275355
137	0x3e0c428c	0.1369726
138	0xbd4cb477	-0.049976792
139	0x3e63eec9	0.22259058
140	0x3ea94392	0.33059365
141	0xbe6b3821	-0.2297063
142	0xbd985c66	-0.074394986
143	0x3e22b655	0.15889867
144	0x3ee56459	0.44803122
145	0x3d84e81e	0.06489585
146	0x3aaf2726	0.0013363108
147	0xbc02ca1f	-0.00798276
148	0xbc82878a	-0.01593377
149	0x3e4a5517	0.19759022
150	0xbe636464	-0.22206265
151	0x3da364d7	0.07978218
152	0x3e087051	0.13324095
153	0xbe1b647f	-0.15175055
154	0x3e8d5759	0.27605703
155	0xbedc2435	-0.42996374
156	0x3f532dd0	0.8249178
157	0x3ee965a6	0.45585364
158	0xbe7d7508	-0.24751675
159	0xbd6e91e1	-0.05824459
160	0xbe90a7cc	-0.2825302
161	0x3e6737a4	0.22579819
162	0x3e09b39a	0.13447419
163	0x3e2d1e4c	0.16906089
164	0xbdd26bc3	-0.1027446
165	0x3db7192d	0.08940349
166	0x3ea14ea5	0.31505314
167	0x3ee5b34a	0.4486335
168	0x3d81e1c8	0.063418925
169	0x3e2f9367	0.17146073
170	0x3df07be3	0.117423795
171	0xbe5bbda5	-0.21459062
172	0x3db1480d	0.08656321
173	0x3f1cbc5d	0.6122492
174	0x3de0c03c	0.10974166
175	0x3eb27fbc	0.3486308
176	0x3ea2c7e4	0.3179313
177	0xbd1e3c9c	-0.03863202
178	0x3e10d872	0.14145067
179	0x3e7f1270	0.24909377
180	0xbe6816c2	-0.22664931
181	0x3d62c0c1	0.055359606
182	0x3e08f8e4	0.13376194
183	0xbdf20fe5	-0.11819438
184	0xbe5e8874	-0.2173174
185	0x3d1de3a5	0.038547177
186	0x3e1eb989	0.15500464
187	0xbe04067a	-0.12893096
188	0xbe2f57cc	-0.17123336
189	0x3e3e4ef1	0.18584801
190	0x3dcd3af4	0.1002101
191	0xbda96ceb	-0.082727276
192	0x3e73f23f	0.23822878
193	0x3e7e4063	0.24829249
194	0x3b2994f9	0.0025876148
195	0xbd177bcc	-0.036983296
196	0x3ee360f3	0.44409904
197	0x3ed74ec9	0.42052296
198	0xbe8d05b4	-0.27543414
199	0xbc854d16	-0.016272109
200	0x3dcc352d	0.0997108
201	0x3e3d95c1	0.18514158
202	0xbe1ed752	-0.15511826
203	0x3d9c1e61	0.07622982
204	0x3ef62038	0.48071456
205	0xbd5c2337	-0.05374452
206	0x3d72be00	0.05926323
207	0xbd86e9f2	-0.0658759
208	0x3e6e3406	0.23262033
209	0x3d6de672	0.058081098
210	0x3ee3abac	0.44466913
211	0x3d6e502b	0.058181923
212	0x3dd7e930	0.10542524
213	0x3e699a98	0.22812879
214	0xbee47bf7	-0.44625828
215	0x3de4276b	0.11140331
216	0xbe4e9f24	-0.20177895
217	0xbe3e6605	-0.18593605
218	0xbe63433b	-0.22193615
219	0xbd487579	-0.048940156
220	0x3d9d8420	0.076912165
221	0x3de5d325	0.11221913
222	0x3db68dae	0.08913742
223	0x3da5880d	0.0808259
224	0xbe2f8feb	-0.17144744
225	0x3ec96d89	0.3934138
226	0x3d074714	0.03302677
227	0x3e11291f	0.14175843
228	0xbe383c9a	-0.17991868
229	0x3eae6d00	0.34067535
230	0x3e5b094b	0.21390264
231	0x3f04f0c1	0.5192986
232	0xbd9c9d13	-0.07647147
233	0x3e522e2d	0.20525427
234	0x3e02ee9b	0.12786333
235	0xbef3f869	-0.4765046
236	0x3ea34c99	0.31894377
237	0x3d589115	0.052872736
238	0x3dda833d	0.10669563
239	0x3de6b8f4	0.11265746
240	0x3dece185	0.11566452
241	0x3c514a99	0.012774133
242	0x3ee87616	0.45402592
243	0x3e53c33b	0.20679943
244	0xbee3c413	-0.4448553
245	0x3f00ba6d	0.50284463
246	0x3dd77945	0.10521177
247	0x3d450975	0.048104722
248	0xbe7e8c86	-0.24858293
249	0xbf08ac89	-0.5338827
250	0xbf129c5a	-0.57269824
251	0xbe814968	-0.25251317
252	0xbe3a399c	-0.18186039
253	0x3d7683ba	0.060184218
254	0xbebc26a8	-0.36748242
255	0x3ed3cc66	0.4136688

output_layer.bias f4 [4]
0	0x3e8228c3	0.25421724
1	0x3e8f72e7	0.2801735
2	0x3e1e2086	0.15442094
3	0x3e28eb8d	0.16496105
